model/model.pth (torch, 12608 bytes, 4 tensors)

linear1.weight f4 [128, 16]
-0.207659 -0.3257178 0.025917498 -0.1869159 -0.17346579 -0.2764564 -0.27442613 -0.21875219
-0.11623626 -0.030595334 -0.22524203 0.051591113 -0.30564263 -0.06109227 -0.3591331 -0.15792014
-0.40842235 -1.3696998 -0.84119666 -0.35734078 -0.20524001 -0.026187226 -0.8357354 -0.44718784
0.74269915 -0.09667122 -0.46507606 0.14352572 1.3391061 0.15819669 0.1917157 0.56801826
0.5848928 0.20216087 -0.047928665 0.32675695 0.5840993 -0.26353103 -0.13704358 0.027700782
0.32444206 -0.10237649 -0.51095045 -0.7041459 -0.08915374 -0.32540202 -0.91853935 -0.6236909
-0.2757571 -0.3925665 0.012931556 -0.59739304 -0.03756685 -0.11686462 0.0023253758 -0.45276722
-0.040909085 -0.049048062 -0.10678837 -0.17154023 -0.43010792 -0.1539335 0.020393904 -0.124694146
-0.56807244 -0.06700238 -0.36659583 -0.35103562 -0.1459595 0.014938956 -0.33294594 -0.36704108
-0.09331391 -0.46221054 -0.6357204 -0.3599666 0.1291371 0.0902787 -0.41125733 -0.5927364
-0.53578466 -0.5486272 -1.0160512 -0.27389926 0.23440492 -0.050582387 -0.53085214 -0.52791756
-0.21692075 -0.5011962 -0.34864497 0.06838666 0.2448943 -0.18972391 0.16690673 -0.088641435
-0.27653936 -0.10224813 -0.059597902 -0.62564385 0.28728554 0.0034825858 -0.5134804 -1.0888973
0.33363676 -0.6431229 -0.7592289 -0.8914636 -0.06922845 -0.06989715 -0.3201539 -1.4224298
0.21374723 -0.17140253 -0.6414091 -0.10765745 0.020197622 -0.18381993 -0.34021288 0.013904987
-0.49469608 -0.5590094 -0.5774817 -0.41040152 0.2215664 -0.10455197 -0.05380193 0.22045422
0.3291895 -0.28335014 0.21352717 -0.5210951 -0.31741774 -0.25596404 -0.5635925 -0.66386753
-0.09559327 -0.45956203 -0.53585863 0.040651474 -0.14924133 0.02022896 -0.25817785 -0.3178273
0.9679125 0.21617272 0.05259959 0.24951799 -0.4807014 0.23092712 -0.03823274 0.28438285
-0.2873686 -0.6638922 -0.21777444 -0.4848087 -0.5096728 -1.1112267 -0.32810232 0.18199758
0.12423453 -0.5683359 0.2676925 -0.5133645 -0.40041664 0.04309539 -0.2599558 -0.15379009
-0.1643388 -0.3414617 -0.49716437 -0.42495114 0.15100503 -0.29632455 -0.049891964 -0.35449103
-0.08957414 0.15811077 -0.74887127 0.100461274 -0.26383227 -0.440755 0.0062476685 0.022286013
-0.253956 -0.5846514 -0.22110042 -0.7642918 0.14607258 -0.14022504 -0.09949662 -0.20794678
0.08668793 -0.1710358 -0.28423846 -0.2891684 -0.2925095 -0.11694228 -0.009014852 -0.2814625
-0.4053167 -0.38277826 -0.016398491 0.002366937 0.084233716 -0.23204553 0.018834393 -0.021949766
-0.44584882 -0.08472192 -0.27342638 0.41719815 -0.39380327 0.13401109 -0.07991563 -0.2036288
-0.44647306 -0.77594215 -0.22063021 -0.21220611 -0.9033101 -0.2243552 -0.3263809 -0.097243115
0.12407282 -0.1344584 -0.47824344 -0.23041019 -0.15228422 -0.097449325 -0.025127029 -0.46360645
-0.2148811 -0.37245834 -0.20587116 -0.18796633 -0.59772396 -0.47981703 -0.27992973 -0.24488452
-0.2892084 -0.28353423 0.04294575 -0.41165274 0.21785362 -0.013814519 -0.5278488 -0.4400716
-0.096464485 -0.8432752 -0.44499803 -0.67037094 -0.34857836 -0.06479736 -0.2408036 -0.30300343
00000000: 90a4 54be 7cc4 a6be ef50 d43c e266 3fbe
00000010: 04a1 31be b18b 8dbe 9581 8cbe 9300 60be
00000020: 470d eebd 11a3 fabc d9a5 66be 3451 533d
00000030: 317d 9cbe e33b 7abd 4be0 b7be d1b5 21be
00000040: bc1c d1be 5352 afbf aa58 57bf 5ff5 b6be
00000050: 702a 52be 9886 d6bc c1f2 55bf cef5 e4be
00000060: 8821 3e3f 90fb c5bd 731e eebe 68f8 123e
00000070: d467 ab3f 50fe 213e 1f51 443e a569 113f
00000080: 89bb 153f 4203 4f3e d950 44bd b04c a73e
00000090: 8887 153f 8aed 86be 2755 0cbe c0ec e23c
000000a0: 451d a63e c4aa d1bd a6cd 02bf e842 34bf
000000b0: 3c96 b6bd 189b a6be 6525 6bbf 35aa 1fbf
000000c0: 0930 8dbe 7afe c8be e1de 533c c0ee 18bf
000000d0: b3df 19bd b856 efbd 5565 183b 1bd1 e7be
000000e0: 4990 27bd 9fe6 48bd dcb3 dabd 3ea8 2fbe
000000f0: 1b37 dcbe bea0 1dbe 1e11 a73c a55f ffbd
00000100: 326d 11bf 8b38 89bd 73b2 bbbe f1ba b3be
00000110: 6876 15be 86c2 743c e477 aabe cfec bbbe
00000120: 5d1b bfbd dca6 ecbe 92be 22bf 8b4d b8be
00000130: 843c 043e 0ae4 b83d 5290 d2be 93bd 17bf
00000140: 2f29 09bf d572 0cbf f70d 82bf 863c 8cbe
00000150: d807 703e 7a2f 4fbd ede5 07bf 9b25 07bf
00000160: 7920 5ebe 654e 00bf 9881 b2be 4e0e 8c3d
00000170: 92c5 7a3e fc46 42be 99e9 2a3e a489 b5bd
00000180: 9196 8dbe 7867 d1bd ee1c 74bd 322a 20bf
00000190: 1717 933e 183c 643b 7473 03bf fd60 8bbf
000001a0: 70d2 aa3e b4a3 24bf d35c 42bf f536 64bf
000001b0: a5c7 8dbd 3d26 8fbd 36eb a3be 2e12 b6bf
000001c0: 8ee0 5a3e 2584 2fbe 6333 24bf 827b dcbd
000001d0: 7c75 a53c 4b3b 3cbe 6230 aebe bed1 633c
000001e0: ce48 fdbe 3d1b 0fbf d7d5 13bf 2620 d2be
000001f0: 4de2 623e 581f d6bd 6a5f 5cbd c0be 613e
00000200: 878b a83e 4513 91be dea6 5a3e 7d66 05bf
00000210: 9484 a2be b80d 83be 9947 10bf 39f3 29bf
00000220: 68c6 c3bd b74b ebbe 082e 09bf 2982 263d
00000230: b8d2 18be 34b7 a53c e32f 84be 43ba a2be
00000240: 1dc9 773f 625c 5d3e ab72 573d a581 7f3e
00000250: 7e1e f6be 2978 6c3e ef99 1cbd a19a 913e
00000260: fa21 93be d7f4 29bf 4300 5fbe d938 f8be
00000270: eb79 02bf ad3c 8ebf 07fd a7be 935d 3a3e
00000280: ac6e fe3d 767e 11bf fe0e 893e db6b 03bf
00000290: 6903 cdbe cb84 303d ed18 85be 267b 1dbe
000002a0: 6e48 28be 11d4 aebe 548c febe 3293 d9be
000002b0: 10a1 1a3e dab7 97be 845b 4cbd d97f b5be
000002c0: a672 b7bd cae7 213e 07b6 3fbf a4be cd3d
000002d0: 0615 87be a4aa e1be 3eb9 cc3b 2891 b63c
000002e0: 8506 82be b7ab 15bf 2668 62be a1a8 43bf
000002f0: 0d94 153e 2797 0fbe e2c4 cbbd 00f0 54be
00000300: 7189 b13d 0224 2fbe b487 91be e10d 94be
00000310: cec3 95be 6f7f efbd 08b3 13bc da1b 90be
00000320: ac85 cfbe 83fb c3be 2156 86bc 9d1e 1b3b
00000330: ba82 ac3d 589d 6dbe 964a 9a3c ffcf b3bc
00000340: 4c46 e4be b082 adbd 8bfe 8bbe ff9a d53e
00000350: 95a0 c9be 343a 093e ceaa a3bd 1184 50be
00000360: 1e98 e4be 25a4 46bf e3ec 61be 8f4c 59be
00000370: 553f 67bf 5fbd 65be 661b a7be 6627 c7bd
00000380: e419 fe3d 76af 09be 53dc f4be a6f0 6bbe
00000390: 65f0 1bbe 8393 c7bd 33d7 cdbc d35d edbe
000003a0: cb09 5cbe dcb2 bebe e4cf 52be 3f7a 40be
000003b0: 7004 19bf 94aa f5be f352 8fbe 02c3 7abe
000003c0: 2013 94be 662b 91be e2e7 2f3d 26c4 d2be
000003d0: 0515 5f3e 4b56 62bc 1921 07bf 1151 e1be
000003e0: 2c8f c5bd e2e0 57bf c8d6 e3be 6e9d 2bbf
000003f0: dd78 b2be 7ab4 84bd 3895 76be 4423 9bbe

linear1.bias f4 [128]
-0.1897161 3.3276303 0.1370021 -0.3760781 -0.4824988 0.10237386 0.065955 1.2622068
0.41805473 1.8606213 0.07974646 1.154755 -0.08299906 0.63306063 -0.28234625 -0.39471242
1.0987877 1.3629235 0.22449328 0.04838489 1.4329678 1.5808264 1.1246905 1.2668351
0.9592481 -0.32597718 -0.39563426 -0.5021998 0.14430475 -0.031346902 1.6001353 -0.096750416
-0.079539 0.31418198 1.3504936 -0.07595574 -0.51172495 0.17141362 -0.5935047 -0.27740777
0.7907376 0.9328084 0.2054318 1.8898822 2.627424 -0.25430977 -0.70554805 -0.111714505
1.032665 0.78590816 0.8651246 -0.27071124 2.4869218 -0.15096804 0.023637027 -0.05852184
-0.28789556 -0.1493991 1.540942 -1.0673223 1.6221635 0.049008228 0.6690991 0.14419447
-0.4535237 0.67910814 0.14702022 -0.36884323 -0.28371185 0.11341674 0.29653096 -0.32740948
-0.34666136 -0.27586165 -0.22542898 0.76831305 0.3341215 0.56916 1.0838838 -0.24801572
-0.28286713 -0.30212393 0.6656986 0.32436058 1.2681233 1.228428 0.0059639756 0.43179604
-0.41333544 -0.12964518 -0.5189544 0.24767187 -0.42144313 1.9012887 0.08515662 -0.18066858
0.32642537 -0.21011637 -0.4216998 -0.2788422 3.0388584 1.1470783 1.78409 -0.103459574
0.0045994287 1.9183398 -0.31928185 -0.12247769 -0.44582337 3.453222 -0.20792103 2.1685896
3.0843375 -0.07700236 1.2127258 -0.44759983 1.3137074 -0.46393117 -0.41682714 -0.2808333
-0.029406317 -0.5930854 1.7636861 -1.2305717 -0.17896195 1.3704222 0.13082632 -0.3764882
00000000: f044 42be e5f7 5440 474a 0c3e 4f8d c0be
00000010: 150a f7be 63a9 d13d 6a13 873d fe8f a13f
00000020: 450b d63e d728 ee3f 1d52 a33d 03cf 933f
00000030: 69fb a9bd 4310 223f b08f 90be bf17 cabe
00000040: 13a5 8c3f 4774 ae3f 91e1 653e 3c2f 463d
00000050: 7d6b b73f 8558 ca3f dcf5 8f3f a727 a23f
00000060: 4991 753f 7be6 a6be 9390 cabe 2b90 00bf
00000070: a0c4 133e 9c65 00bd 3cd1 cc3f 1525 c6bd
00000080: 58e5 a2bd 76dc a03e f9dc ac3f af8e 9bbd
00000090: 6800 03bf 0d87 2f3e edef 17bf 6408 8ebe
000000a0: c86d 4a3f 88cc 6e3f b75c 523e a9e7 f13f
000000b0: b727 2840 e434 82be cc9e 34bf 93ca e4bd
000000c0: 5e2e 843f 4731 493f ce78 5d3f aa9a 8abe
000000d0: ba29 1f40 5e97 1abe 70a2 c13c 99b4 6fbd
000000e0: 0c67 93be 14fc 18be 963d c53f 049e 88bf
000000f0: 0ea3 cf3f dabc 483d 144a 2b3f b7a7 133e
00000100: 4234 e8be 08da 2d3f 788c 163e 05d9 bcbe
00000110: ae42 91be 0947 e83d e8d2 973e 37a2 a7be
00000120: 997d b1be bd3d 8dbe dbd6 66be 2ab0 443f
00000130: f911 ab3e 78b4 113f b4bc 8a3f d5f7 7dbe
00000140: f6d3 90be fdaf 9abe 396b 2a3f 9712 a63e
00000150: dd51 a23f 213d 9d3f 746d c33b 5f14 dd3e
00000160: b4a0 d3be b5c1 04be 32da 04bf b29d 7d3e
00000170: 65c7 d7be 6e5d f33f 9866 ae3d 2f01 39be
00000180: 3a21 a73e bf28 57be 09e9 d7be 68c4 8ebe
00000190: a87c 4240 76d3 923f 105d e43f 9de2 d3bd
000001a0: ceb6 963b 298c f53f e978 a3be 95d5 fabd
000001b0: f642 e4be 9701 5d40 40e9 54be 2cca 0a40
000001c0: c965 4540 6ab3 9dbd 993a 9b3f ce2b e5be
000001d0: 9027 a83f 6388 edbe 5e6a d5be 62c9 8fbe
000001e0: 84e5 f0bc 72d4 17bf 77c0 e13f 6083 9dbf
000001f0: cd41 37be ff69 af3f 56f7 053e 10c3 c0be

linear2.weight f4 [4, 128]
-0.17491648 0.4285421 0.36061043 -0.009969669 0.10184104 -0.09573121 -0.05094542 0.059578802
0.1833483 0.41122577 -0.06580438 0.13118228 -0.03736073 -0.01080689 0.20475209 -0.061114408
0.44956067 0.35917744 -0.17479628 -0.013578095 0.059690136 0.1931914 0.25143582 0.07933947
0.033651095 0.009704535 -0.045312297 0.053916384 0.032364544 -0.050829723 0.03352453 -0.038381208
0.10103293 0.005432154 0.14212106 -0.11621099 -0.034211073 0.02134107 -0.0354969 0.025451144
0.0010685391 -0.015982319 0.024144996 0.24668646 0.08089617 -0.068243854 -0.1425898 0.040821128
0.3978197 0.028033644 -0.040589523 -0.042442147 0.08815421 -0.10026697 0.07741083 0.11880303
-0.044845544 0.011761609 0.09599763 -0.22993569 0.29885477 -0.087254874 0.22145112 0.057837438
0.28254557 0.12727161 -0.101749144 0.09019734 -0.11132537 -0.047314446 -0.021376636 0.021304363
-0.03667268 -0.09822898 0.39398277 0.06716461 0.15775287 0.030791078 0.124800555 -0.010382215
-0.14389397 0.24082257 -0.070682205 -0.22496901 0.19633982 -0.054094415 0.029087847 -0.12521085
0.19261186 0.118226826 0.20322661 -0.06768017 -0.0296846 0.32928064 -0.19297351 0.33918563
-0.094549514 -0.04310084 -0.055331785 0.09282778 0.18362145 -0.10107219 0.137652 0.086765155
-0.016195334 0.23938842 0.13055627 0.04097931 -0.004783093 0.5160916 -0.04783982 0.45770746
0.49267778 0.018004289 0.27261114 -0.23561583 0.17653486 0.049356733 -0.08185896 -0.055447325
-0.1148121 -0.057739 0.22839358 -0.043446366 -0.0027842766 -0.048213065 0.16211799 0.03173793
0.07337483 0.23453827 0.06810362 -0.07416243 0.007674181 0.12474309 0.37691784 0.20083278
0.32313386 0.1391683 0.28802207 0.31758508 0.016768927 0.30018717 0.0008553154 0.26639697
0.115631774 0.280755 0.054650005 0.06281052 0.3012021 0.5356813 0.21532312 -0.19178528
0.097208865 -0.17528144 0.20990124 0.16993795 0.08214183 0.019260338 -0.056177925 0.022809537
-0.02516893 -0.08637365 0.070407555 0.030948631 0.08968031 0.09865768 -0.2512019 0.07641158
0.23898378 0.22810441 -0.060927816 0.28147742 0.022360949 0.25897345 -0.27963656 0.15370001
-0.27272153 0.04173786 -0.12848577 0.08330311 0.33700794 0.1945367 0.021319175 0.032939993
-0.13180669 -0.0535802 -0.046155658 -0.26509145 0.13642608 -0.0012924563 -0.02453695 -0.19687647
-0.29697526 0.19533537 0.0031806277 -0.06041897 -0.045541685 0.45721334 -0.049340453 0.14250532
-0.083265215 -0.43046683 0.120263666 0.46476156 -0.2178093 0.11922905 0.09515981 -0.05292603
0.17061353 0.07869324 0.18406278 0.29710564 0.5111991 -0.12472062 0.0165674 0.23966886
0.36256722 0.07730543 -0.085343696 0.17320052 0.04950182 -0.12508225 0.15245098 0.017193701
0.014705319 -0.029648375 0.13430205 -0.025954396 0.21822268 -0.05234074 0.030528745 0.014548567
0.066993594 0.016289087 -0.04262455 0.05097828 0.05248736 0.5421393 0.09464556 0.27918145
0.08763544 0.2945108 0.3100871 0.18393092 0.03164831 0.022130594 -0.27022278 -0.04188394
0.13757971 0.101226255 0.3148224 -0.010833577 0.16041255 0.26229244 0.47625172 0.22548676
00000000: 4e1d 33be df69 db3e eea1 b83e d357 23bc
00000010: 0992 d03d ba0e c4bd 25ac 50bd e708 743d
00000020: a8bf 3b3e 2f8c d23e 72c4 86bd a654 063e
00000030: 9107 19bd 620f 31bc 88aa 513e 1a53 7abd
00000040: d12c e63e 1be6 b73e ccfd 32be a876 5ebc
00000050: a57d 743d f7d3 453e 32bc 803e bb7c a23d
00000060: bbd5 093d c5ff 1e3c 6399 39bd 6dd7 5c3d
00000070: af90 043d d432 50bd 0451 093d 9d35 1dbd
00000080: 5aea ce3d 3600 b23b 2f88 113e 0700 eebd
00000090: e920 0cbd 78d3 ae3c 3365 11bd eb7e d03c
000000a0: 390e 8c3a 5aed 82bc bacb c53c 609b 7c3e
000000b0: e4ac a53d 6fc3 8bbd 0f03 12be 0e34 273d
000000c0: 06af cb3e d0a6 e53c 3341 26bd d1d7 2dbd
000000d0: 328a b43d c558 cdbd 9289 9e3d 014f f33d
000000e0: f6af 37bd c4b3 403c 689a c43d 4374 6bbe
000000f0: 7e03 993e afb2 b2bd 15c4 623e f3e6 6c3d
00000100: d0a9 903e 7d53 023e db61 d0bd 62b9 b83d
00000110: 8efe e3bd cbcc 41bd 0e1e afbc 7d86 ae3c
00000120: 1836 16bd 472c c9bd 1cb8 c93e 998d 893d
00000130: f889 213e 923d fc3c 6f97 ff3d 2a1a 2abc
00000140: f158 13be 319a 763e d5c1 90bd 475e 66be
00000150: 4e0d 493e 1b92 5dbd a349 ee3c 4637 00be
00000160: 0b3c 453e e820 f23d a31a 503e e79b 8abd
00000170: 1e2d f3bc 7997 a83e d99a 45be bda9 ad3e
00000180: 2da3 c1bd 828a 30bd 95a3 62bd 7e1c be3d
00000190: 4307 3c3e f0fe cebd a5f4 0c3e eeb1 b13d
000001a0: 14ac 84bc 3d22 753e 8bb0 053e ecd9 273d
000001b0: 7ebb 9cbb 941e 043f b0f3 43bd a258 ea3e
000001c0: 4340 fc3e bb7d 933c b093 8b3e 4745 71be
000001d0: 8ec5 343e 492a 4a3d aca5 a7bd bc1c 63bd
000001e0: 9b22 ebbd bb7f 6cbd 02e0 693e d1f4 31bd
000001f0: 6978 36bb 107b 45bd 4202 263e a2ff 013d
00000200: 8b45 963d cd2a 703e e979 8b3d 79e2 97bd
00000210: b277 fb3b 4e79 ff3d 60fb c03e 1ca7 4d3e
00000220: cd71 a53e 2382 0e3e a177 933e 839a a23e
00000230: fd5e 893c 22b2 993e 3f37 603a 2f65 883e
00000240: 5ad0 ec3d 1fbf 8f3e afd8 5f3d cda2 803d
00000250: 2937 9a3e 6922 093f aa7d 5c3e 5c63 44be
00000260: 7115 c73d fa7c 33be 5af0 563e 3704 2e3e
00000270: fa39 a83d dbc7 9d3c d31a 66bd 11db ba3c
00000280: 122f cebc abe4 b0bd d631 903d fc87 fd3c
00000290: 4faa b73d 0a0d ca3d 899d 80be ad7d 9c3d
000002a0: 2ab8 743e 3494 693e 728f 79bd cf1d 903e
000002b0: 4f2e b73c 2b98 843e 862c 8fbe 8963 1d3e
000002c0: 28a2 8bbe 51f5 2a3d c691 03be d29a aa3d
000002d0: 4e8c ac3e a134 473e 8da5 ae3c 16ec 063d
000002e0: 55f8 06be e976 5bbd b70d 3dbd 11ba 87be
000002f0: 47b3 0b3e a367 a9ba b701 c9bc fc99 49be
00000300: 240d 98be ff05 483e 1472 503b e279 77bd
00000310: eb89 3abd de17 ea3e 3719 4abd eaec 113e
00000320: f486 aabd 2666 dcbe cc4c f63d 3af5 ed3e
00000330: 6709 5fbe 5c2e f43d 25e3 c23d f7c8 58bd
00000340: 50b5 2e3e ec29 a13d f47a 3c3e 3b1e 983e
00000350: f2dd 023f 866d ffbd 5bb8 873c c16b 753e
00000360: 69a2 b93e 4f52 9e3d adc8 aebd 7a5b 313e
00000370: 6cc2 4a3d 9015 00be 1c1c 1c3e ced9 8c3c
00000380: 94ee 703c 26e1 f2bc 7a86 093e 509e d4bc
00000390: c475 5f3e 3e63 56bd 6b17 fa3c 1d5d 6e3c
000003a0: f033 893d b170 853c 1597 2ebd 9ace 503d
000003b0: fcfc 563d a4c9 0a3f 88d5 c13d dff0 8e3e
000003c0: 367a b33d 1fca 963e bdc3 9e3e 6358 3c3e
000003d0: a9a1 013d 384b b53c a45a 8abe 7f8e 2bbd
000003e0: b2e1 0c3e b64f cf3d 6730 a13e 517f 31bc
000003f0: 3043 243e 324b 863e 44d7 f33e 00e6 663e

linear2.bias f4 [4]
2.677287 2.5330126 1.5763206 1.8735849
00000000: ac58 2b40 e11c 2240 e0c4 c93f a1d1 ef3f
