model/model.pth (torch, 23360 bytes, 4 tensors)

linear1.weight f4 [256, 16]
0	0xbedba66a	-0.429004
1	0x3d8d7acf	0.069081895
2	0xbd30342e	-0.043018512
3	0xbe2e9a47	-0.1705104
4	0xbe98a6b8	-0.29814696
5	0xbf0f5120	-0.5598316
6	0x3d376089	0.044769797
7	0xbd8b39f3	-0.06798162
8	0xbe5c6704	-0.21523672
9	0xbefbc28d	-0.49171868
10	0xbdf0dd24	-0.11760929
11	0xbd86c669	-0.065808125
12	0xbe11b796	-0.14230189
13	0xbe645965	-0.22299726
14	0xbe74f0d2	-0.2391999
15	0xbe530a3d	-0.20609374
16	0xbe3c9d81	-0.18419458
17	0xbd24c701	-0.040228847
18	0xbe765ea6	-0.24059543
19	0xbeb82972	-0.3596912
20	0xbf14e620	-0.5816364
21	0x3d8f8dc9	0.07009465
22	0xbd8cef7b	-0.06881615
23	0xbe17ddc3	-0.14830689
24	0xbc89dc46	-0.016828667
25	0xbe04efc5	-0.1298209
26	0xbc8f01f9	-0.017456995
27	0x3dd00ea3	0.10159042
28	0xbbf1276c	-0.007359436
29	0xbe3d472c	-0.18484181
30	0xbd97d6cc	-0.07414016
31	0xbe151d8b	-0.14562051
32	0xbe1939b3	-0.14963417
33	0xbef92acb	-0.4866546
34	0xbd6bd012	-0.05757148
35	0xbefa7a62	-0.48921496
36	0xbec85011	-0.39123586
37	0xbf176475	-0.5913766
38	0xbe0a442e	-0.13502571
39	0x3daba41e	0.08380912
40	0xbe084c53	-0.13310365
41	0xbe88a73a	-0.26690084
42	0x3d45e808	0.048316985
43	0xbdd5c75c	-0.104384154
44	0xbf06740d	-0.5252083
45	0xbe833ab3	-0.2563072
46	0xbe6533f0	-0.22383094
47	0xbde92673	-0.11384287
48	0xbe9d8d56	-0.30771893
49	0xbeb3a1ea	-0.35084468
50	0x3c6ddafa	0.01451754
51	0xbec863b2	-0.3913856
52	0x3d6cd448	0.057819635
53	0xbead00bf	-0.33789632
54	0xbe1f570c	-0.1556055
55	0xbe87fa00	-0.26557922
56	0x3cfd1245	0.0308925
57	0xbe84e824	-0.2595836
58	0xbdb4da5a	-0.0883071
59	0xbef9ee7c	-0.48814762
60	0xbda9e378	-0.08295339
61	0xbe1a20f1	-0.15051629
62	0xbe859913	-0.2609335
63	0xbe83dec7	-0.25755903
64	0xbee633b4	-0.4496132
65	0xbf2f745b	-0.6853692
66	0xbeee4867	-0.46539614
67	0xbd7094db	-0.05873571
68	0xbef93650	-0.4867425
69	0xbeb3e729	-0.351373
70	0xbefa326c	-0.48866594
71	0xbd9763fb	-0.07392117
72	0xbeeeb81c	-0.4662484
73	0xbf769748	-0.96324587
74	0xbe8cc5d4	-0.2749468
75	0xbf0a0e95	-0.539285
76	0xbe7a8ddc	-0.24468178
77	0xbdf03c4a	-0.11730249
78	0xbe44ae7e	-0.19207188
79	0xbd886243	-0.06659367
80	0xbdcc21f8	-0.099674165
81	0xbe8b0a84	-0.2715646
82	0xbccce49a	-0.02501135
83	0xbe912880	-0.28351212
84	0xbe6af608	-0.22945416
85	0xbb2a3d66	-0.0025976538
86	0xbe11063c	-0.14162534
87	0xbe719ab9	-0.23594178
88	0x3be496d4	0.006975988
89	0xbe4c39b9	-0.19943894
90	0xbe4efe58	-0.20214212
91	0xbe79f66f	-0.24410413
92	0xbe8f992b	-0.28046545
93	0xbe8c3bad	-0.2738928
94	0xbd49aa71	-0.04923481
95	0xbe8fbcf7	-0.28073856
96	0xbf006282	-0.5015031
97	0xbe915f76	-0.28393143
98	0xbe15fc79	-0.14647092
99	0x3cb91fe1	0.022598209
100	0xbee0dc92	-0.43918282
101	0xbe974427	-0.29544184
102	0xbeeae623	-0.45878705
103	0x3e92087b	0.28522095
104	0xbf0020e0	-0.50050163
105	0xbe72595b	-0.23666899
106	0xbe93e287	-0.28883764
107	0xbde1efb6	-0.11032049
108	0xbe29e06d	-0.16589518
109	0xbe56a8b9	-0.209628
110	0x3de17002	0.11007692
111	0xbec827da	-0.39092904
112	0xbe9c859b	-0.30570683
113	0xbe00c6fe	-0.1257591
114	0xbeb1b635	-0.34709325
115	0xbf57b519	-0.8426071
116	0x3e2147a1	0.1574998
117	0xbd8d3340	-0.06894541
118	0xbf033758	-0.5125632
119	0x3e4d22fd	0.20032878
120	0xbf042147	-0.5161328
121	0xbe466dab	-0.19377773
122	0x3dbea0b5	0.09307996
123	0x3e6759af	0.22592805
124	0xbef0d3f0	-0.47036695
125	0xbeefeb82	-0.46859366
126	0xbf36fc1d	-0.71478444
127	0x3f5b961a	0.8577591
128	0xbf025725	-0.5091422
129	0xbeb2cd19	-0.34922102
130	0xbed0d32b	-0.40786108
131	0x3e4b7f3b	0.19872753
132	0xbe52ce00	-0.20586395
133	0xbf11bbcf	-0.569272
134	0xbe97e314	-0.29665434
135	0xbed66556	-0.41874188
136	0x3d240488	0.040043384
137	0x3d64dff5	0.055877645
138	0xbe6aef31	-0.22942807
139	0x3b92755d	0.004469557
140	0xbedc99a1	-0.4308596
141	0xbec91e01	-0.39280704
142	0x3d854e99	0.06509132
143	0xbe3d7b47	-0.18504058
144	0xbe3317c9	-0.17489542
145	0xbeb11d9b	-0.345929
146	0x3d2f765f	0.042837497
147	0xbea63f87	-0.32470343
148	0xbe9971f8	-0.29969764
149	0xbe63cbd8	-0.22245729
150	0xbf098812	-0.5372325
151	0xbe3dc4ff	-0.1853218
152	0xbeff06b5	-0.49809805
153	0xbf07bde2	-0.53024113
154	0xbe25c19c	-0.16187137
155	0xbe90ac56	-0.28256482
156	0xbef9fc33	-0.48825225
157	0xbe515dc2	-0.20445922
158	0xbe9fe3d2	-0.312285
159	0x3d9c9ae6	0.07646732
160	0xbf03edaa	-0.5153452
161	0xbec13381	-0.37734607
162	0xbe0a17a7	-0.13485585
163	0xbc82ab26	-0.01595075
164	0xbea05165	-0.313121
165	0x3d72734d	0.05919199
166	0xbe0714e8	-0.13191569
167	0xbe0e6e73	-0.1390932
168	0xbe484ce2	-0.19560578
169	0xbe0c0e5f	-0.13677357
170	0xbe3f3a5e	-0.18674609
171	0xbec95dbf	-0.39329335
172	0xbebba813	-0.36651668
173	0xbd845499	-0.06461448
174	0xbe94b117	-0.2904136
175	0x3d659813	0.056053232
176	0xbe88e836	-0.26739663
177	0xbecbddb5	-0.39817587
178	0xbe4a531d	-0.19758268
179	0x3d053799	0.032523725
180	0xbcba387b	-0.02273201
181	0xbe82cf69	-0.25548866
182	0xbeb5bdaa	-0.35496265
183	0xbe02e266	-0.12781677
184	0xbc411414	-0.011784572
185	0xbeae8f06	-0.34093493
186	0xbe351881	-0.17685129
187	0xbd400e08	-0.04688838
188	0xbccf33f9	-0.025293337
189	0xbd55d467	-0.052204516
190	0xbd400d18	-0.046887487
191	0xbb9af932	-0.0047294134
192	0xbe7c55e1	-0.24642135
193	0xbe928169	-0.28614357
194	0xbded83e0	-0.11597419
195	0xbdefc410	-0.11707318
196	0xbc2e248e	-0.0106288325
197	0xbd46381e	-0.04839336
198	0xbe534f5a	-0.20635739
199	0xbdc3a750	-0.09553397
200	0xbc9c5ba8	-0.019086674
201	0xbcc4449b	-0.023958495
202	0xbe2e4af9	-0.17020787
203	0xbea188d8	-0.31549716
204	0xbc321fb0	-0.010871813
205	0xbd6bdde2	-0.05758465
206	0xbdd7c71e	-0.105360255
207	0xbdad292a	-0.08455117
208	0xbe900b6d	-0.28133717
209	0xbea79c4d	-0.32736436
210	0xbe2a4f83	-0.16631894
211	0x3cfac3c7	0.030610932
212	0xbe3ae6e3	-0.18252139
213	0xbf02fc38	-0.51166105
214	0x3d6add5e	0.05734002
215	0xbeb2a674	-0.3489262
216	0xbe365b56	-0.1780828
217	0xbeacc0e4	-0.33740914
218	0xbd3ab864	-0.045586005
219	0xbe036739	-0.12832345
220	0xbe316f33	-0.17327575
221	0xbe6be403	-0.23036198
222	0xbdf39757	-0.118941
223	0xbeb26dfe	-0.34849542
224	0xbdf8f15c	-0.12155411
225	0xbe9231e3	-0.28553686
226	0xbc920888	-0.017826334
227	0xbe4afa95	-0.19822152
228	0xbe7a8600	-0.2446518
229	0xbd497c89	-0.04919103
230	0xbe77b729	-0.24190964
231	0xbd8dff4c	-0.0693346
232	0xbe663eb8	-0.22484863
233	0xbd552846	-0.05204036
234	0x3d35e7e7	0.044410612
235	0x3dbbccd5	0.09169928
236	0x3d1180e3	0.035523307
237	0xbe1ebfab	-0.15502803
238	0xbd88b2f2	-0.06674756
239	0xbe8a0f8f	-0.26964995
240	0xbe922d17	-0.28550026
241	0xbe092445	-0.13392742
242	0xbf018d71	-0.5060645
243	0x3ec28ddd	0.37998858
244	0xbe1cb7b2	-0.15304449
245	0xbe3108de	-0.17288539
246	0xbea98191	-0.33106664
247	0x3b1158cb	0.002217817
248	0xbe240925	-0.16019113
249	0x3da706b8	0.081555784
250	0xbdb38681	-0.08765889
251	0x3d3cb51a	0.04607115
252	0xbdc45ef1	-0.09588421
253	0xbe6e4f7f	-0.23272513
254	0xbe2348c7	-0.15945731
255	0xbe776985	-0.24161346

linear1.bias f4 [256]
0	0xbe3a81e4	-0.18213612
1	0xbe1dab73	-0.15397434
2	0xbe9cf6f7	-0.3065717
3	0xbe8dadca	-0.27671653
4	0xbef2ee04	-0.47447217
5	0x3cf00b14	0.029302157
6	0xbf278358	-0.6543479
7	0x3d93446e	0.07190786
8	0xbd3abd4e	-0.04559069
9	0xbe99196e	-0.29902214
10	0xbe24cf2a	-0.16094652
11	0xbe0f562f	-0.1399772
12	0xbea6fb36	-0.32613534
13	0xbe5a2b89	-0.2130567
14	0x3e209c3e	0.15684602
15	0xbd85da6b	-0.065358005
16	0xbe9d3eb5	-0.30711904
17	0xbe36500c	-0.17803973
18	0xbe6d0291	-0.2314551
19	0xbe6b7619	-0.2299427
20	0xbf1774f2	-0.5916282
21	0x3d3153de	0.043292873
22	0x3e2d233c	0.16907972
23	0xbe81ac7f	-0.25326917
24	0xbe53d48b	-0.20686547
25	0xbea45339	-0.32094744
26	0xbe5a26db	-0.21303885
27	0x3cb4b26e	0.022057738
28	0xbe8e9725	-0.2784969
29	0xbf25b2b3	-0.647258
30	0xbe12c179	-0.14331616
31	0xbf090f9b	-0.5353944
32	0xbed60e32	-0.41807705
33	0xbf00a15d	-0.5024622
34	0xbefa9607	-0.48942587
35	0xbe0959c6	-0.13413152
36	0xbdd95fe8	-0.10613996
37	0xbe8169da	-0.2527607
38	0xbd9b2a49	-0.07576425
39	0xbf1e5d89	-0.61861473
40	0xbe7afa41	-0.24509527
41	0xbec73c75	-0.38913313
42	0xbea67cdd	-0.32517138
43	0xbeecd995	-0.46259752
44	0xbe828b50	-0.25496912
45	0xbe5d57a2	-0.2161546
46	0xbf436027	-0.7631859
47	0xbee520d8	-0.4475162
48	0xbe2bb559	-0.16768397
49	0xbcd806a5	-0.026370356
50	0xbe364f3f	-0.17803667
51	0xbeaebe30	-0.34129477
52	0xbebbff65	-0.36718288
53	0xbed69f00	-0.41918182
54	0xbe7000f8	-0.2343787
55	0xbf0cf547	-0.55061764
56	0xbeeb1c59	-0.45920065
57	0xbf2c9237	-0.67410606
58	0xbdd6e440	-0.10492754
59	0xbeba14fc	-0.36344135
60	0xbe924aae	-0.285726
61	0xbe3f0964	-0.18655926
62	0xbf041691	-0.51596934
63	0xbe88fff6	-0.26757783
64	0xbea9f3a0	-0.33193684
65	0xbed11529	-0.40836456
66	0xbefb9d5a	-0.49143487
67	0xbdfa607d	-0.12225435
68	0xbe667499	-0.22505416
69	0xbdf96dd4	-0.12179151
70	0xbe358065	-0.1772476
71	0xbee162fd	-0.44020835
72	0x3d1dc9e5	0.03852262
73	0xbf2405e2	-0.64071476
74	0xbea4a827	-0.3215954
75	0xbea25f06	-0.31713122
76	0xbe0af988	-0.13571751
77	0xbe58db7f	-0.21177481
78	0xbebe5960	-0.37177563
79	0xbe8a1248	-0.26967072
80	0xbf21885f	-0.6309871
81	0xbe348656	-0.1762937
82	0xbec8fa95	-0.3925368
83	0xbeeffeb0	-0.46874
84	0xbf19ae51	-0.6003161
85	0xbec9143e	-0.39273256
86	0xbe9e85ad	-0.30961362
87	0xbf05837e	-0.52153766
88	0xbddf97dc	-0.10917637
89	0xbe87b595	-0.26505724
90	0xbf209ab5	-0.62736064
91	0xbe95dfc7	-0.2927229
92	0xbebdd6c3	-0.37077913
93	0xbef585de	-0.47953695
94	0xbe9ad89c	-0.30243385
95	0xbeb336d8	-0.3500278
96	0xbea1aed9	-0.3157871
97	0xbf3feda8	-0.7497201
98	0xbe25ba58	-0.16184366
99	0xbd88d3fa	-0.06681056
100	0xbda58237	-0.08081477
101	0xbe52a610	-0.2057116
102	0xbeba723b	-0.36415276
103	0xbedd5b34	-0.43233645
104	0xbed7f7f4	-0.4218136
105	0xbdb7f8a8	-0.08982974
106	0xbe5f5cd8	-0.21812761
107	0xbd9c5166	-0.07632713
108	0xbf0edb57	-0.55803436
109	0xbe83d39f	-0.25747392
110	0xbeda15bf	-0.42594716
111	0xbed698e5	-0.41913524
112	0xbdaffbae	-0.08592926
113	0xbec454c6	-0.38345927
114	0xbecb09f0	-0.3965602
115	0xbe97a3a0	-0.29617023
116	0xbf53cd86	-0.8273548
117	0xb965062a	-0.00021841438
118	0xbe0bab71	-0.13639618
119	0xbeb772bd	-0.35829726
120	0xbe4bccd4	-0.19902354
121	0xbd9ce35f	-0.07660555
122	0x3d5aabe1	0.053386573
123	0xbea771c7	-0.32703993
124	0xbf048f73	-0.51781386
125	0xbefaae34	-0.4896103
126	0xbdd7b36b	-0.10532268
127	0xbe452b0f	-0.19254707
128	0xbedf77dc	-0.43646133
129	0xbe3ef021	-0.1864629
130	0xbe810cc2	-0.25205046
131	0xbdbfd8a9	-0.093674965
132	0x3d352879	0.04422805
133	0xbe531f3e	-0.20617387
134	0xbe98cd72	-0.29844242
135	0xbe71c8d3	-0.23611765
136	0xbd2dc887	-0.042427566
137	0xbeecd868	-0.46258855
138	0xbe82066a	-0.2539552
139	0xbcd60a08	-0.02612783
140	0xbf2c45d3	-0.67294043
141	0xbf26d111	-0.6516276
142	0xbef218aa	-0.47284442
143	0xbe6a3796	-0.22872767
144	0xbe52bf18	-0.20580709
145	0xbeca71c1	-0.39539912
146	0xbe2f6c2d	-0.1713111
147	0xbefa9508	-0.48941827
148	0xbe510e0a	-0.20415512
149	0xbecfad4b	-0.405619
150	0xbe9a2541	-0.30106547
151	0xbeafd777	-0.34344074
152	0xbef02858	-0.4690578
153	0xbe32dce1	-0.17467071
154	0xbe54852a	-0.20753923
155	0x3e0d9985	0.13828094
156	0xbe740745	-0.23830898
157	0xbe8d301c	-0.27575767
158	0x388776a1	6.459398e-05
159	0xbea7ed64	-0.32798302
160	0xbe927b25	-0.28609577
161	0xbf0ced76	-0.55049837
162	0xbf0e0e63	-0.554907
163	0xbda7aac7	-0.0818687
164	0xbe3c7b50	-0.18406415
165	0xbd8ddeb6	-0.06927244
166	0xbedbb153	-0.42908725
167	0xbf09d99e	-0.5384768
168	0xbf04b550	-0.5183916
169	0xbe24bc10	-0.16087365
170	0xbe162121	-0.14661075
171	0xbe821680	-0.2540779
172	0xbee10aa0	-0.4395342
173	0xbea16d07	-0.31528494
174	0xbe88faf6	-0.26753968
175	0xbebf84f5	-0.37406126
176	0xbf23b618	-0.6394973
177	0xbebe0b43	-0.37117967
178	0xbec95018	-0.3931892
179	0xbea7d166	-0.32776946
180	0xbe31bf6e	-0.17358181
181	0xbf6f1cd7	-0.9340338
182	0xbdd47d9b	-0.1037552
183	0xbec462bb	-0.38356575
184	0xbe79131f	-0.243237
185	0xbe340984	-0.17581755
186	0xbdf61c81	-0.120171554
187	0xbecd6303	-0.40114602
188	0xbec417cf	-0.38299415
189	0x3d983e52	0.07433762
190	0xbdce6fdb	-0.100799285
191	0xbe5e1193	-0.21686392
192	0xbf0d16c7	-0.5511288
193	0xbe11ce77	-0.14238916
194	0x3d5c1c96	0.0537382
195	0xbe21dcc6	-0.15806875
196	0xbee6e912	-0.45099694
197	0xbeb970e8	-0.36218953
198	0xbe9de179	-0.30836084
199	0xbec17058	-0.37781024
200	0xbea6d07f	-0.32580945
201	0xbe8bb4ac	-0.2728628
202	0xbea01aa2	-0.3127032
203	0xbea491b3	-0.3214241
204	0xbede33f2	-0.43399006
205	0xbe8ba0da	-0.27271158
206	0xbe0eacbb	-0.13933079
207	0xbc9835c6	-0.018580329
208	0xbd93968d	-0.0720645
209	0xbca78f83	-0.020454174
210	0xbe8aea9e	-0.27132124
211	0xbe0b4fea	-0.13604704
212	0xbd6dab67	-0.05802479
213	0xbea5c4de	-0.3237676
214	0xbeff8801	-0.4990845
215	0xbe1898f7	-0.14902101
216	0xbea60e20	-0.32432652
217	0xbe925fd0	-0.28588724
218	0xbe548389	-0.20753302
219	0xbe92d419	-0.28677443
220	0xbe80d8a6	-0.2516529
221	0x3dfefe5c	0.12450859
222	0xbec5213e	-0.38501924
223	0xbe70a40c	-0.23500079
224	0xbed273d6	-0.41104
225	0xbd99aa75	-0.07503215
226	0xbea76f22	-0.32701975
227	0xbea14e25	-0.31504932
228	0x3da032dd	0.078222014
229	0xbeaa1970	-0.33222532
230	0xbeaf855c	-0.34281433
231	0x3e2b01d6	0.16699919
232	0xbdb44bcb	-0.08803519
233	0xbd25daf5	-0.040492017
234	0xbeeb9dd1	-0.46018842
235	0xbde656c6	-0.112470195
236	0xbee17ae7	-0.4403908
237	0xbe252805	-0.16128547
238	0xbec28237	-0.3798997
239	0x3c3c36bb	0.011487658
240	0xbe3d8485	-0.18507583
241	0xbe1e68e9	-0.15469708
242	0x3ea3f71b	0.32024464
243	0xbe89ee9f	-0.26939866
244	0xbdbf47aa	-0.09339841
245	0xbbe22605	-0.006901505
246	0xbd32120f	-0.043474253
247	0xbee173fd	-0.44033805
248	0xbe972dbb	-0.29527077
249	0xbe8aba2a	-0.27095157
250	0xbe71b496	-0.23604044
251	0xbee689cf	-0.45027015
252	0xbe5a7f19	-0.21337546
253	0xbe7e2345	-0.24818142
254	0xbd89dac1	-0.06731177
255	0xbec7bcee	-0.3901133

linear2.weight f4 [4, 256]
0	0xbbb7b77e	-0.005606591
1	0xbc1ad415	-0.009449978
2	0xbc231154	-0.009952862
3	0xbdf58a56	-0.11989276
4	0xbdb10242	-0.08643009
5	0xbd981a59	-0.074269004
6	0xbcbb31e2	-0.022850934
7	0x3dd8e77a	0.10591026
8	0xbda5ace9	-0.080896206
9	0x3b2c2daf	0.0026272347
10	0x3db933b8	0.09043068
11	0xbbe2a4c6	-0.006916615
12	0x3d1c00d5	0.03808673
13	0xbda1bfae	-0.07897888
14	0xbc52940b	-0.012852679
15	0x3d32be90	0.043638766
16	0x3cd96485	0.02653719
17	0x3dc1fe9c	0.09472391
18	0xbd0bea73	-0.034159135
19	0x3d1622c2	0.03665424
20	0x3bb2544c	0.005442178
21	0x3b7f9f3c	0.0039004823
22	0xbd96aa61	-0.07356716
23	0xbde76061	-0.1129768
24	0x3df11cf1	0.11773098
25	0x3db8a04f	0.090149514
26	0xbdac8e83	-0.084256195
27	0x3be3d3ba	0.00695273
28	0x3d8d3a14	0.06895843
29	0xbcb3c9ec	-0.02194687
30	0x3c4ccd7b	0.012500162
31	0xbdea7e76	-0.11449902
32	0x3dd36c56	0.10323398
33	0x3ca2c74e	0.019870427
34	0x3cb72684	0.022357233
35	0xbd8daf7f	-0.06918239
36	0x3caa04ed	0.020754302
37	0x3d908978	0.0705747
38	0xbe380943	-0.17972283
39	0x3e14f65e	0.14547107
40	0x3cee22c4	0.029069312
41	0x3e04bff5	0.12963851
42	0xbb23f88b	-0.002501997
43	0xbe117fea	-0.14208952
44	0xbdc56b4d	-0.096396066
45	0xbd324499	-0.04352245
46	0x3d99afa0	0.07504201
47	0x3d8232fb	0.0635738
48	0xbd068503	-0.032841694
49	0x3c8b0dee	0.016974416
50	0xbc43a2b1	-0.011940644
51	0x3cc28f48	0.023749962
52	0x3c74aadb	0.014933313
53	0xbd298114	-0.041382864
54	0xbe0e0fb7	-0.13873182
55	0x3e7d2f4b	0.24725072
56	0xbc962c7e	-0.018331762
57	0xbd469314	-0.04848011
58	0xbe08863c	-0.13332456
59	0xbe867673	-0.26262245
60	0x3d20f42a	0.039295353
61	0x3dd6b8a2	0.10484435
62	0xbdd0666c	-0.101757854
63	0xbd88efc8	-0.0668636
64	0xbd46f6d2	-0.04857523
65	0x3dbbfb4c	0.091787905
66	0xbd410474	-0.047123387
67	0xbcf69e49	-0.030104773
68	0xbde0a30b	-0.10968598
69	0x3bb5845e	0.005539461
70	0x3cc53a67	0.0240757
71	0xbc772bac	-0.015086096
72	0xbc593cae	-0.013259096
73	0x3cd714f0	0.026255101
74	0xbd71565d	-0.058920253
75	0xbd3f6279	-0.04672477
76	0x3dd39d6d	0.10332761
77	0x3c56ccf3	0.013110387
78	0xbeaa123a	-0.3321703
79	0x3ce278aa	0.027645428
80	0xbdc3d4bd	-0.09562061
81	0x3cd1ad37	0.02559529
82	0x3d85bbb9	0.06529946
83	0xbd4cb878	-0.04998061
84	0xbe5534bb	-0.20820896
85	0xbe84fa73	-0.25972328
86	0x3e9e500c	0.30920446
87	0x3bf10575	0.007355387
88	0x3dccdc24	0.10002926
89	0xbd670586	-0.056401752
90	0xbd8aa781	-0.0677023
91	0x3df9d315	0.12198464
92	0x3bafbbeb	0.0053629777
93	0xbe163cd7	-0.14671646
94	0xbc025f82	-0.007957341
95	0xbe750d79	-0.2393092
96	0xbdb0aa63	-0.08626249
97	0xbbb80801	-0.0056161885
98	0x3e39e6d3	0.18154459
99	0xbde0e1d5	-0.10980574
100	0xbda9d19f	-0.08291935
101	0xbe1f84ad	-0.15577956
102	0x3d06691b	0.03281508
103	0xbe1e49e1	-0.1545787
104	0x3daabf72	0.083372965
105	0xbdb0992b	-0.086229645
106	0x3d2e8d4c	0.04261522
107	0xbba32a3f	-0.0049794014
108	0xbe671e01	-0.2257004
109	0x3e00acb1	0.12565877
110	0xbe34aee1	-0.17644836
111	0xbda3ba25	-0.079944886
112	0xbdadf105	-0.084932365
113	0x3d6ea5f6	0.05826374
114	0xbd441b51	-0.047877613
115	0x3c5cc441	0.013474525
116	0xbdcedbe1	-0.10100532
117	0x3c9e215f	0.019303022
118	0x3ca85ff0	0.020553559
119	0x3ddf3658	0.10899037
120	0x3d5433f2	0.05180735
121	0xbe800585	-0.2500421
122	0xbd5191e0	-0.051164508
123	0xbd30b467	-0.043140795
124	0x3c71f848	0.0147686675
125	0xbe205ad3	-0.15659647
126	0xbdb14d1e	-0.08657287
127	0x3e38526a	0.18000188
128	0xbdc76b06	-0.0973721
129	0xbe1ebb68	-0.15501177
130	0xbe91a77d	-0.28448096
131	0xbd26ebf9	-0.040752385
132	0xbdda93e1	-0.10672737
133	0xbdc5d938	-0.09660572
134	0xbe6e9c2c	-0.23301762
135	0x3cc2bd34	0.02377186
136	0xbd8f2817	-0.069900684
137	0x3c8ce8ea	0.017200906
138	0xbd48a395	-0.04898413
139	0xbd9b54a2	-0.07584502
140	0x3cba26a8	0.02272351
141	0x3e9594ec	0.2921518
142	0xbc1213d9	-0.008915865
143	0xbd0053d3	-0.03132994
144	0xbd0f5c4e	-0.035000138
145	0xbd0d1a22	-0.03444875
146	0x3cf72412	0.030168567
147	0xbd13cb8a	-0.03608278
148	0x3d0c4ae0	0.034251094
149	0xbc8cd33e	-0.017190572
150	0x3d910dba	0.07082696
151	0xbe33e7f9	-0.1756896
152	0xbc48eac5	-0.012263005
153	0xbe728c5c	-0.23686355
154	0x3d97bdc1	0.074092396
155	0x3e0ae07c	0.13562196
156	0x3db67dd1	0.08910716
157	0x3dbd0fe1	0.09231544
158	0xbc0f3b0f	-0.008742108
159	0x3d128b3a	0.035777308
160	0x3d90e860	0.07075572
161	0xbe2c7e4f	-0.16845058
162	0xbbb665ea	-0.0055663483
163	0xbc41e3b6	-0.011834076
164	0xbdd6a4a6	-0.10480623
165	0x3d5ee345	0.05441596
166	0xbddbbfd4	-0.10729948
167	0xbd56c2fc	-0.052432045
168	0xbd8cd13b	-0.06875845
169	0x3dbac019	0.09118671
170	0x3d017aea	0.03161136
171	0xbe18eda4	-0.14934403
172	0xbd46c711	-0.04852969
173	0x3ca1d351	0.019754084
174	0xbd0b28ff	-0.033974644
175	0x3d2213c4	0.03956963
176	0xbe7517b0	-0.23934817
177	0xbe46ca47	-0.194131
178	0xbc92dfce	-0.017928984
179	0x3ddf74cd	0.1091095
180	0xbc373e02	-0.011184217
181	0xbe8eb9ad	-0.27876034
182	0xbba7e460	-0.00512366
183	0xbd4bf759	-0.049796436
184	0xbe730b22	-0.23734716
185	0xbf05ba5b	-0.5223748
186	0xbe5fd1dc	-0.21857399
187	0x3cfb411a	0.030670691
188	0x3dac6667	0.08417969
189	0xbbc9a0ac	-0.006153187
190	0x3e1ec60b	0.15505235
191	0x3dcc0a98	0.09962958
192	0x3cc8674d	0.02446332
193	0x3d891464	0.06693342
194	0xbd4966c0	-0.049170256
195	0xbd8cec3a	-0.06880994
196	0xbdaae3d3	-0.08344235
197	0x3d8592c6	0.065221354
198	0x3b69912c	0.0035639508
199	0xbdc80bc9	-0.09767873
200	0x3c652eda	0.013988221
201	0x3d3bb402	0.045825966
202	0x3c34ea37	0.011042169
203	0xbbb46772	-0.0055054957
204	0xbe65e094	-0.22448951
205	0xbe6052f4	-0.21906644
206	0xbdb92561	-0.090403326
207	0x3ccc869a	0.024966527
208	0xbe3e5e07	-0.18590556
209	0xbda086c2	-0.07838203
210	0xbd0b6322	-0.034030087
211	0x3d866caa	0.06563695
212	0xbc82b16f	-0.015953748
213	0x3d82c3be	0.06384991
214	0x3de6fa5d	0.11278222
215	0xbd947852	-0.07249512
216	0x3e8dd5b4	0.27702105
217	0xbe17c0e2	-0.14819673
218	0xbe0af318	-0.13569295
219	0xbbb63f59	-0.005561751
220	0xbd00b9c9	-0.03142718
221	0x3d42da95	0.047571737
222	0xbc2e5272	-0.010639774
223	0x3d9aa1b0	0.07550371
224	0xbcbb1dcf	-0.022841362
225	0xbe3122fe	-0.17298505
226	0x3d629968	0.05532208
227	0xbd1cd557	-0.038289394
228	0x3b799a7f	0.0038086472
229	0x3db44489	0.088021345
230	0xbe130986	-0.14359102
231	0xbe282534	-0.16420442
232	0xbeaee63c	-0.3416003
233	0xbd6173bc	-0.055042014
234	0xbea6e72d	-0.32598248
235	0xbe41ff2a	-0.18944994
236	0x3d0fd9d3	0.035119843
237	0x3d6acf81	0.057326797
238	0x3d0029ef	0.03128999
239	0xbe0e0296	-0.13868174
240	0x3e0ad3d1	0.13557364
241	0x3d1f833f	0.038943525
242	0x3ca0f1f6	0.019646626
243	0xbd2fe689	-0.042944465
244	0xbdde6aca	-0.10860212
245	0x3ac76392	0.0015212169
246	0xbddcd83d	-0.10783432
247	0x3e0f8dae	0.1401889
248	0x3e3c5dbb	0.1839513
249	0xbd7d4bb4	-0.061839774
250	0xbc5d5e58	-0.013511263
251	0x3c92efb7	0.01793657
252	0xbd881b2c	-0.066458076
253	0xbd09e873	-0.033668946
254	0x3dc37a23	0.0954478
255	0xbcd53cc9	-0.026029961

linear2.bias f4 [4]
0	0xbdb07770	-0.08616531
1	0x3d6ed6eb	0.05831043
2	0xbe3b65dc	-0.18300575
3	0x3dcc71d4	0.099826485
